…
_____________________________________________________________________________________________________________________________________________________
 Layer (type)                                Output Shape                  Param #          Connected to                                  Trainable  
=====================================================================================================================================================
 input_17 (InputLayer)                       [(None, 337, 1)]              0                []                                            Y          
 conv1d_160 (Conv1D)                         (None, 337, 64)               512              ['input_17[0][0]']                            Y          
 batch_normalization_172 (BatchNormalization  (None, 337, 64)              256              ['conv1d_160[0][0]']                          Y          
 )                                                                                                                                                   
 activation_136 (Activation)                 (None, 337, 64)               0                ['batch_normalization_172[0][0]']             Y          
 conv1d_161 (Conv1D)                         (None, 337, 64)               12288            ['activation_136[0][0]']                      Y          
 batch_normalization_173 (BatchNormalization  (None, 337, 64)              256              ['conv1d_161[0][0]']                          Y          
 )                                                                                                                                                   
 activation_137 (Activation)                 (None, 337, 64)               0                ['batch_normalization_173[0][0]']             Y          
 dropout_24 (Dropout)                        (None, 337, 64)               0                ['activation_137[0][0]']                      Y          
 conv1d_162 (Conv1D)                         (None, 337, 64)               12288            ['dropout_24[0][0]']                          Y          
 batch_normalization_174 (BatchNormalization  (None, 337, 64)              256              ['conv1d_162[0][0]']                          Y          
 )                                                                                                                                                   
 dropout_25 (Dropout)                        (None, 337, 64)               0                ['batch_normalization_174[0][0]']             Y          
 add_48 (Add)                                (None, 337, 64)               0                ['dropout_25[0][0]',                          Y          
                                                                                             'activation_136[0][0]']                                 
 activation_138 (Activation)                 (None, 337, 64)               0                ['add_48[0][0]']                              Y          
 conv1d_163 (Conv1D)                         (None, 337, 64)               12288            ['activation_138[0][0]']                      Y          
 batch_normalization_175 (BatchNormalization  (None, 337, 64)              256              ['conv1d_163[0][0]']                          Y          
 )                                                                                                                                                   
 activation_139 (Activation)                 (None, 337, 64)               0                ['batch_normalization_175[0][0]']             Y          
 dropout_26 (Dropout)                        (None, 337, 64)               0                ['activation_139[0][0]']                      Y          
 conv1d_164 (Conv1D)                         (None, 337, 64)               12288            ['dropout_26[0][0]']                          Y          
 batch_normalization_176 (BatchNormalization  (None, 337, 64)              256              ['conv1d_164[0][0]']                          Y          
 )                                                                                                                                                   
 dropout_27 (Dropout)                        (None, 337, 64)               0                ['batch_normalization_176[0][0]']             Y          
 add_49 (Add)                                (None, 337, 64)               0                ['dropout_27[0][0]',                          Y          
                                                                                             'activation_138[0][0]']                                 
 activation_140 (Activation)                 (None, 337, 64)               0                ['add_49[0][0]']                              Y          
 conv1d_165 (Conv1D)                         (None, 337, 64)               12288            ['activation_140[0][0]']                      Y          
 batch_normalization_177 (BatchNormalization  (None, 337, 64)              256              ['conv1d_165[0][0]']                          Y          
 )                                                                                                                                                   
 activation_141 (Activation)                 (None, 337, 64)               0                ['batch_normalization_177[0][0]']             Y          
 dropout_28 (Dropout)                        (None, 337, 64)               0                ['activation_141[0][0]']                      Y          
 conv1d_166 (Conv1D)                         (None, 337, 64)               12288            ['dropout_28[0][0]']                          Y          
 batch_normalization_178 (BatchNormalization  (None, 337, 64)              256              ['conv1d_166[0][0]']                          Y          
 )                                                                                                                                                   
 dropout_29 (Dropout)                        (None, 337, 64)               0                ['batch_normalization_178[0][0]']             Y          
 add_50 (Add)                                (None, 337, 64)               0                ['dropout_29[0][0]',                          Y          
                                                                                             'activation_140[0][0]']                                 
 activation_142 (Activation)                 (None, 337, 64)               0                ['add_50[0][0]']                              Y          
 global_average_pooling1d_16 (GlobalAverageP  (None, 64)                   0                ['activation_142[0][0]']                      Y          
 ooling1D)                                                                                                                                           
 dense_16 (Dense)                            (None, 4)                     260              ['global_average_pooling1d_16[0][0]']         Y          
=====================================================================================================================================================
Total params: 76,292
Trainable params: 75,396
Non-trainable params: 896
_____________________________________________________________________________________________________________________________________________________
…
